…
r.\n","WARNING:tensorflow:From /usr/local/lib/python3.6/dist-packages/keras/backend/tensorflow_backend.py:3445: calling dropout (from tensorflow.python.ops.nn_ops) with keep_prob is deprecated and will be removed in a future version.\n","Instructions for updating:\n","Please use `rate` instead of `keep_prob`. Rate should be set to `rate = 1 - keep_prob`.\n","_________________________________________________________________\n","Layer (type)                 Output Shape              Param #   \n","=================================================================\n","input_1 (InputLayer)         (None, 128)               0         \n","_________________________________________________________________\n","embedding_1 (Embedding)      (None, 128, 64)           524288    \n","_________________________________________________________________\n","dropout_1 (Dropout)          (None, 128, 64)           0         \n","_________________________________________________________________\n","batch_normalization_1 (Batch (None, 128, 64)           256       \n","_________________________________________________________________\n","conv1d_1 (Conv1D)            (None, 128, 32)           14368     \n","_________________________________________________________________\n","batch_normalization_2 (Batch (None, 128, 32)           128       \n","_________________________________________________________________\n","conv1d_2 (Conv1D)            (None, 128, 32)           3104      \n","_________________________________________________________________\n","batch_normalization_3 (Batch (None, 128, 32)           128       \n","_________________________________________________________________\n","conv1d_3 (Conv1D)            (None, 128, 32)           3104      \n","_________________________________________________________________\n","batch_normalization_4 (Batch (None, 128, 32)           128       \n","_________________________________________________________________\n","conv1d_4 (Conv1D)            (None, 128, 32)           3104      \n","_________________________________________________________________\n","conv1d_5 (Conv1D)            (None, 128, 2)            66        \n","_________________________________________________________________\n","global_average_pooling1d_1 ( (None, 2)                 0         \n","_________________________________________________________________\n","activation_1 (Activation)    (None, 2)                 0         \n","=================================================================\n","Total params: 548,674\n","Trainable params: 548,354\n","Non-trainable params: 320\n","_________________________________________________________________\n"],"name":"stdout"}]},{"metadata":{"id":"TqEYrc-f-egR","colab_type":"code","outputId":"99ca9b0c-e81f-4ae3-c23e-616ce653d341","executionInfo":{"status":"ok","timest
…
